keras_to_snn_params.npz (npz, 212269 bytes, 7 tensors)

arr_0 f4 [3, 187, 64]
000000 75 56 a3 3d 10 0a 4e bc 5c 1f 71 bd 8a c7 12 3d
       0.07975475 -0.012575641 -0.058867797 0.035834827
000010 8e 1e 73 3d 20 13 22 bb e1 db 9c bd 27 91 a5 3d
       0.05935531 -0.0024730638 -0.07659126 0.08084326
000020 26 06 8b bd ae 27 33 3d a0 48 fe bc 68 1c fb bc
       -0.06788282 0.043739013 -0.03104049 -0.030653194
000030 00 dd 74 bc a3 0a 95 bd a4 c1 97 bd 38 e6 0c bc
       -0.014945269 -0.072774194 -0.07409981 -0.00859981
000040 60 a1 01 bc 22 21 0b 3d e6 8d 98 bd 5f 37 ad 3d
       -0.00791201 0.033967145 -0.0744894 0.08457827
000050 71 e0 b1 3d df 7e a1 3d e6 80 2f 3d eb c7 8e 3d
       0.08685387 0.07885527 0.042847537 0.06971725
000060 e8 70 94 3c 79 bd 86 3d a0 a8 64 3c b6 68 6d 3d
       0.018120244 0.06579108 0.013956219 0.05796119
000070 e4 38 a5 3c ca ad de bc f0 28 91 bc be b0 9c bd
       0.02016873 -0.027182478 -0.017719716 -0.076508984
000080 b0 c9 78 bc 77 e3 10 bd c3 dc 99 3d b7 44 aa 3d
       -0.015184805 -0.035373177 0.0751281 0.083138876
000090 e3 36 97 3d d1 a5 1c bd 5d dc 21 bd 6f 14 ad 3d
       0.07383516 -0.038244072 -0.039516795 0.08451163
0000a0 a8 2f aa 3c 20 6e 05 3d 8a de 6f 3d 0c bb 0b 3d
       0.020774677 0.032575727 0.05856184 0.03411393
0000b0 80 62 9b bd 08 41 d2 bc e0 54 51 bc a7 70 47 bd
       -0.07587147 -0.025665775 -0.012776583 -0.048691418
0000c0 73 b2 8f 3d fb 27 9b 3d 3e 9b 78 bd b1 42 b5 3d
       0.07016458 0.07575985 -0.060694925 0.08850611
0000d0 32 02 68 3d 40 76 5a bd 69 15 04 bd 58 18 85 bd
       0.05664272 -0.05333543 -0.03224698 -0.06498784
0000e0 c5 d8 a4 bd c7 36 b0 bd f0 7b 90 bc 9c ea 8a bc
       -0.08049158 -0.08604198 -0.017637223 -0.016957574
0000f0 9f 22 1c bd 19 1d a6 3d e4 b7 d7 3c 0c 35 92 3c
       -0.038118955 0.08111019 0.026332803 0.01784756
000100 f0 50 4b bd 00 3b b8 39 05 6a a2 3d ba 6d 03 bd
       -0.049637735 0.00035139173 0.07930378 -0.032087065
000110 ce 72 3d 3d 5c 73 de 3c 75 64 9a bd 9a 17 46 3d
       0.046252064 0.027154617 -0.07538692 0.048362352
000120 6b d7 2f bd e0 c7 b0 3c 41 87 35 bd 05 69 0e bd
       -0.042930048 0.021579683 -0.04431844 -0.034768123
000130 22 f4 60 3d 0a 4a 7f bd c6 af dc bc 51 73 11 bd
       0.054920323 -0.06232647 -0.026939284 -0.035510365
000140 3b c1 ab 3d 21 d1 b4 3d d8 53 4a bc 8c a8 ca bc
       0.08386465 0.08828951 -0.0123490915 -0.024738573
000150 46 73 60 bd 60 44 64 bc bd a2 aa 3d 00 56 d6 b9
       -0.054797433 -0.0139323175 0.08331821 -0.00040881336
000160 c5 e5 0a bd d0 a8 96 bd d2 0c 04 bd 59 01 91 bd
       -0.03391053 -0.07356417 -0.03223879 -0.07080335
000170 8e 39 3e 3d 60 59 5c bb a0 f7 c0 bb 50 f3 00 3c
       0.046441607 -0.0033622608 -0.005888894 0.00787051
000180 e4 e2 92 3c 69 3a a9 3d 26 32 7b 3d 10 70 87 bb
       0.017930456 0.08263094 0.061327122 -0.004133232
000190 c8 c1 a5 bd 5a b6 5b bd 7c 50 b1 bd a0 a4 4f bb
       -0.080936015 -0.0536407 -0.08657929 -0.0031683818
0001a0 bb 24 8f 3d 4b 31 40 bd b6 a1 5b 3d a4 ea c1 3c
       0.06989428 -0.04692201 0.053621016 0.023671456
0001b0 34 6c 09 3d 36 7c 4e 3d 6d b3 ab 3d b0 42 df 3c
       0.033550456 0.050411426 0.08383832 0.027253479
0001c0 9c 26 8c 3c 36 76 2d 3d 68 b6 10 bc b4 bf 06 bd
       0.017108254 0.042349063 -0.008832552 -0.032897666
0001d0 08 9b 4f bc b0 45 c7 3c 00 20 02 bb 52 ea 0e bd
       -0.01267124 0.024325222 -0.00198555 -0.034891434
0001e0 94 5b da bc 97 ea a2 bd 00 e7 3f 3c 38 ba 9f 3c
       -0.026654996 -0.07954901 0.01171279 0.019497976
0001f0 78 de a4 3c bd f2 86 bd 78 e4 f4 3c bc 24 ab 3c
       0.020125613 -0.065892674 0.029894099 0.02089154
000200 28 f9 c7 bc 00 b8 0f 3c e6 6c 6b 3d 3a b5 05 bd
       -0.0244108 0.008771896 0.0574769 -0.032643534
000210 a1 95 a6 3d b6 fb 32 3d 26 45 7a 3d 29 c8 a6 3d
       0.08134008 0.04369708 0.0611011 0.08143646
000220 87 7d 10 bd 04 43 b1 bc 5f 81 ae bd c0 39 80 3a
       -0.035275962 -0.0216384 -0.08520769 0.0009782836
000230 50 35 dd 3b 2b 36 a0 bd e1 2c 17 bd 18 db 65 bd
       0.00675074 -0.07822832 -0.036908034 -0.056117147
000240 dc 06 82 bc 81 ed 85 3d 1b f5 9d bd 0c fb ae 3c
       -0.015872411 0.06539441 -0.07712766 0.021359943
000250 68 e0 1d bc 1b 2b 94 3d d7 20 8b 3d 66 87 49 3d
       -0.009636022 0.07234784 0.06793373 0.04920139
000260 d5 86 56 bd 40 fd 58 bb 1e 25 06 3d a8 9e bb 3c
       -0.05237468 -0.0033109933 0.03275024 0.022902802
000270 20 9e c9 bc 79 02 84 3d ad da 9c 3d a7 18 87 3d
       -0.024611533 0.06445784 0.076588966 0.06596499
000280 b0 8d af bd 1c 1d af bc f6 4d 4f 3d 86 f5 1c 3d
       -0.085719466 -0.021376185 0.05061146 0.038320087
000290 f0 71 5e bc 8e eb f8 bc 6b 83 8e bd 00 af 34 bb
       -0.0135769695 -0.030385759 -0.0695866 -0.0027570128
0002a0 49 de a1 bd 2e f0 33 3d 77 96 b6 3d 53 97 a9 3d
       -0.07903726 0.043930225 0.08915418 0.08280816
0002b0 ca 2d 07 bd 88 46 b4 bc 46 a6 9d bd e0 6a 05 bc
       -0.033002652 -0.022006288 -0.0769773 -0.008143157
0002c0 b6 02 7d 3d dc 35 de 3c 4e d1 3c bd 33 10 b5 bd
       0.061770163 0.027125292 -0.046098046 -0.088409804
0002d0 7a ef 5d 3d 2a 2e 3d 3d 5e 1f 0d 3d d8 b3 c3 bc
       0.05418346 0.046186604 0.034453742 -0.023889467
0002e0 90 80 41 bc 97 2f ad 3d c2 d0 b1 bd aa 5d 22 3d
       -0.011810437 0.08456343 -0.086823955 0.039640106
0002f0 c6 7b 59 bd ac e8 bd 3c 5e dd 8d bd 83 10 40 bd
       -0.053096555 0.023182236 -0.06926988 -0.046890747
000300 74 f9 af 3c 33 8e 82 bd f7 dc af bd b3 fa 3e bd
       0.021481253 -0.063747786 -0.085870676 -0.046625804
000310 92 7e 74 bd 33 71 8a 3d 2a cc 46 3d ee f0 ae bd
       -0.05969102 0.06759872 0.04853455 -0.085420474
000320 63 7f 13 bd 9b ee 6c bd 96 8d ff bc 68 55 9f bc
       -0.036010157 -0.05784474 -0.031195443 -0.019449905
000330 68 a8 3d 3c a1 84 ad 3d 58 74 31 3c 70 c1 0e 3d
       0.011575796 0.084725626 0.010830961 0.034852445
000340 c7 4c 85 3d 0f 0e 79 bd fd f0 12 bd 76 5b fa bc
       0.06508785 -0.060804423 -0.035874356 -0.03056119
000350 63 df 75 bd d8 90 12 3c 0d 91 9b 3d 38 2e 80 bd
       -0.06002749 0.008945666 0.075960256 -0.062588155
000360 d6 0e 86 bd 38 b3 d3 3c e6 93 00 3d f0 6f 94 bc
       -0.065457985 0.025842294 0.031391047 -0.018119782
000370 03 75 27 bd 40 f9 a5 3a 9e 1d 57 3d a8 f7 71 3c
       -0.040883075 0.0012662783 0.05251848 0.0147685185
000380 6a f2 89 bd 20 52 2d 3b 62 56 16 3d b0 66 fc 3c
       -0.0673569 0.0026446655 0.036703475 0.030810684
000390 c0 f6 97 3a 1a 8d 6e bd 81 7c 2f bd cc 61 9f bd
       0.0011593923 -0.058240034 -0.042843346 -0.07782325
0003a0 16 21 39 bd 9a f6 7e bd 7b 5e 89 3d 96 23 b0 bd
       -0.04519757 -0.062246896 0.06707474 -0.086005375
0003b0 08 0e 31 3c 40 a1 e3 3a a8 67 4c 3c cc b7 da 3c
       0.010806568 0.0017366782 0.012475885 0.02669897
0003c0 00 e9 45 bb cc ca aa bc 7c 61 d7 3c 9b 57 a5 3d
       -0.0030198693 -0.020848654 0.026291601 0.0807335
0003d0 a0 44 7e bb d9 7a 92 bd 73 65 79 bd 8e 79 49 bd
       -0.0038798228 -0.071523376 -0.060887765 -0.04918819
0003e0 71 93 b0 3d ba 1b 66 3d fd 89 7c bd e4 7c 81 bd
       0.08621872 0.056178786 -0.061655033 -0.06322649
0003f0 c3 ca a8 3d fc 8f a6 bd 75 14 2e bd a8 15 f5 3c
       0.08241799 -0.081329316 -0.042499978 0.029917553

arr_1 f4 [3, 64, 64]
000000 20 3c 2d bc 80 a0 2f bc 28 9f 45 bd 3c ab d2 bd
       -0.010573417 -0.0107194185 -0.048247486 -0.102865666
000010 a8 b9 04 3d d8 74 7d bd e0 f7 eb 3c 04 5c c7 3d
       0.032403618 -0.06187901 0.02880472 0.097343475
000020 f8 1c 59 3d 80 40 4c bb 3c cd c3 3d a8 35 5e bd
       0.053006142 -0.0031166375 0.0956063 -0.05425039
000030 24 e5 c5 3d 2c 41 8a bd 38 96 29 bd 60 a5 c1 bd
       0.09662846 -0.06750712 -0.041403025 -0.09455371
000040 70 15 41 3d 80 b9 e3 3d 48 b2 02 3d 10 7d a6 bd
       0.047139585 0.11119366 0.031908303 -0.081293225
000050 84 53 c2 3d 50 7e c2 bc 5c 66 e6 bd 80 b1 fe 3d
       0.094885856 -0.023741871 -0.11249992 0.12436199
000060 18 93 c8 bd 80 6b 98 3d c0 ba 1f bd 30 5d 26 3d
       -0.09793681 0.07442379 -0.038996458 0.040616214
000070 60 49 eb bd a0 86 f1 3d f8 0d 3a bd 18 28 30 3d
       -0.114886045 0.11793256 -0.045423478 0.043006986
000080 e0 95 6f bd d0 c8 41 bd 00 cf 3c bd c8 1f 88 3d
       -0.05849254 -0.04731065 -0.046095848 0.06646687
000090 80 3a d7 bb 6c 98 af bd c0 4d f6 3b 00 72 09 bb
       -0.006568253 -0.08573994 0.0075165927 -0.002097249
0000a0 a8 cf 8d bd 00 80 50 bb e4 5c e8 3d 54 af d1 bd
       -0.06924373 -0.0031814575 0.113458425 -0.10238519
0000b0 ac a5 d0 bd b8 5b 0f bd e4 6a eb 3d 50 61 67 3d
       -0.101878494 -0.03499958 0.11494997 0.05648929
0000c0 c4 d3 f2 3d e0 f3 d6 3c f4 ef a0 bd 1c fd 97 3d
       0.11856797 0.026239336 -0.078582674 0.07421324
0000d0 a8 cf 05 3d 40 08 ca bb c8 a8 ac bd 00 d5 d2 3b
       0.03266874 -0.0061655343 -0.0843063 0.006434083
0000e0 40 d4 66 bd 80 1b 4b 3c d0 1a c6 bc c0 6a 24 bc
       -0.05635476 0.012396693 -0.024182707 -0.010035217
0000f0 78 a3 a2 bd 00 95 30 bc 50 00 a2 bc 30 84 a6 3c
       -0.079413354 -0.010777712 -0.01977554 0.020326704
000100 dc db 99 bd 80 ed 21 bd 60 75 36 bd 00 73 a1 bb
       -0.07512638 -0.03953314 -0.04454553 -0.004927039
000110 44 ee ff 3d 90 45 76 3d 00 3b ef bb 50 d2 63 bd
       0.124966174 0.060124934 -0.0073007345 -0.05562049
000120 60 ae 6a 3c 90 e4 60 3d 00 f6 93 3b d0 6c 24 3d
       0.014323801 0.054905474 0.0045154095 0.040142834
000130 d0 64 af 3d a0 fd 5b bd 18 6f 7b 3d a8 c7 d5 bd
       0.0856415 -0.053708673 0.061385244 -0.10438472
000140 d8 f8 e3 bd ec 6d f1 3d 2c d8 90 bd e0 be 50 bd
       -0.111314476 0.11788544 -0.070724815 -0.050963283
000150 70 76 0c 3d 80 a2 5c 3d 74 79 da bd 80 f7 a9 bd
       0.03429264 0.05386591 -0.106676966 -0.0829916
000160 d8 82 df bd d4 64 f2 3d 00 81 b5 3a 48 e2 10 bd
       -0.10913628 0.11835638 0.0013847649 -0.03537205
000170 50 03 96 bd 70 f4 d9 bc 60 01 a0 3c f8 e3 8d 3d
       -0.073248506 -0.026605815 0.019531906 0.06928247
000180 ec c7 a9 3d 70 e0 ee bd 60 77 18 3c c0 f7 70 3d
       0.08290085 -0.11663902 0.009305805 0.058830023
000190 e0 d3 7b bc c8 99 b9 3d a0 61 bf 3d 68 7e 6d 3d
       -0.015370339 0.090625346 0.09344792 0.05798188
0001a0 d0 05 9d bd 6c 48 96 3d 80 f0 30 3d f8 57 62 3d
       -0.07667124 0.07338032 0.04319811 0.055259675
0001b0 30 3d b4 3c 0c a3 be 3d 04 f6 fa 3d 2c 73 da bd
       0.022001833 0.093084425 0.12253955 -0.106664985
0001c0 a8 62 6d bd d0 6d 93 3c d4 b2 82 3d 50 36 ee 3d
       -0.057955414 0.017996699 0.06381765 0.11631453
0001d0 04 a5 87 bd 50 58 56 3d 60 46 7b bc a8 40 a9 3d
       -0.06623271 0.052330315 -0.015336603 0.08264285
0001e0 80 18 c6 bc 24 e8 86 bd bc a9 a7 bd 1c f0 89 3d
       -0.024181604 -0.06587246 -0.08186671 0.0673525
0001f0 e0 a3 34 bd 6c aa a5 3d 28 ae 79 bd 00 19 f2 bd
       -0.044101596 0.08089146 -0.060957104 -0.118211746
000200 40 d9 e3 3c 70 a5 b3 3d 40 6e 85 3c 94 ea d8 3d
       0.027813554 0.08771789 0.016287923 0.10591617
000210 0c 01 df 3d 88 23 58 bd 14 c4 cb 3d d8 1b 50 3d
       0.108888716 -0.05276826 0.09949508 0.050807804
000220 58 8f f9 3d 00 ee 57 bb 98 b6 53 bd 54 f4 a0 bd
       0.12185544 -0.0032948256 -0.051687807 -0.07859102
000230 70 ee 3f bd 60 2c 7c 3d 00 08 e8 3a 00 4d 6b 3c
       -0.04685825 0.061565757 0.001770258 0.01436162
000240 28 e0 b7 3d 48 9f 0e bd 80 a8 9f bd f8 fe 8a bd
       0.08978301 -0.03481987 -0.07795811 -0.06786913
000250 00 1e 31 3d a8 27 15 3d d8 f8 27 bd b0 04 50 3d
       0.0432415 0.036414772 -0.0410088 0.05078572
000260 8c 30 88 bd 90 42 e3 3d e8 1d 10 3d 80 20 ff 3d
       -0.066498846 0.1109668 0.03518477 0.12457371
000270 00 71 71 bc 78 dd e6 bd a0 16 b9 3d b4 77 b3 3d
       -0.014736414 -0.112727106 0.090375185 0.08763066
000280 20 7c a7 3d 98 c0 53 bd 48 43 0a 3d 50 bf 95 bd
       0.08177972 -0.051697344 0.03375557 -0.073118806
000290 d0 55 54 3d d0 26 13 bd 80 fe e1 bb a0 2b bf bd
       0.05183965 -0.035925686 -0.006896794 -0.09334493
0002a0 88 8a 4f bd f8 d9 d3 bd 60 75 c5 bd 4c 38 e7 bd
       -0.050669223 -0.103443086 -0.09641528 -0.11290035
0002b0 20 83 2f 3d 00 42 bd 3d dc 01 df bd dc 57 84 bd
       0.04284966 0.09241104 -0.108890265 -0.0646207
0002c0 94 5a f8 bd 08 37 d6 bd 98 cd 75 3d f8 97 cd bd
       -0.121266514 -0.10459715 0.060010523 -0.10038751
0002d0 e8 30 5d 3d 00 97 e0 bc 90 82 82 bd c8 e0 03 3d
       0.05400172 -0.027415752 -0.06372559 0.03219679
0002e0 f0 7c eb bd e0 4c d1 3d e0 4c 7b bc 38 86 03 3d
       -0.11498439 0.10219741 -0.015338153 0.032110423
0002f0 60 9e 09 3d 70 f3 3e 3d 60 2f 42 3d c0 dc e0 3c
       0.033598304 0.04661888 0.04740846 0.027449012
000300 78 a8 d7 3d 88 04 2d 3d 04 48 80 3d e8 61 16 3d
       0.1053018 0.04224065 0.06263736 0.036714464
000310 40 05 ae bb 50 23 eb 3c 78 8d 80 3d 68 a1 50 3d
       -0.0053106844 0.028703362 0.06276983 0.05093518
000320 54 1c e3 bd 98 c5 4c bd 80 fb be 3b 60 01 20 bd
       -0.110893875 -0.049993128 0.005828321 -0.03906381
000330 b8 07 92 bd 30 7f d1 3c b0 50 4a 3d a0 56 24 3c
       -0.071303785 0.025573343 0.049393356 0.010030419
000340 0c 1e ef 3d 58 c5 ac bd 48 0f 43 bd a0 6c 69 bc
       0.11675653 -0.08436078 -0.047621995 -0.01424709
000350 f8 36 0e 3d 74 da cc bd a0 28 f3 bc 60 ab 2b 3d
       0.03472039 -0.10002604 -0.029682457 0.041911483
000360 10 d4 af 3d 00 75 1d bc 98 03 d8 3d 40 23 8d 3d
       0.085853696 -0.0096104145 0.105475605 0.06891489
000370 70 4f 72 3d e0 e6 3b bc c0 62 83 bc e0 bd 5d bd
       0.05915779 -0.011468619 -0.016038299 -0.054136157
000380 80 cd 31 3d 80 27 87 3c d8 42 3b bd fc ef ab 3d
       0.04340887 0.016498327 -0.045718044 0.08395383
000390 98 cb 3e bd 80 74 ad bc 4c 70 fa bd 38 0c ff bd
       -0.04658088 -0.021173716 -0.1222845 -0.124535024
0003a0 b0 ec 02 3d 40 04 f5 bb 88 80 98 3d cc b5 e0 bd
       0.031964004 -0.0074773133 0.074463904 -0.10972175
0003b0 b4 e8 bf 3d c0 21 11 3d 80 5d 88 3d 34 6d e0 bd
       0.093705565 0.035432577 0.06658459 -0.10958329
0003c0 8c be fa 3d 00 86 33 3b 8c ef e9 3d b4 4f f7 bd
       0.12243375 0.0027393103 0.11422643 -0.12075749
0003d0 78 a9 d2 3d 58 24 93 3d 44 5d d3 3d 00 45 90 3d
       0.1028623 0.071846664 0.103205234 0.07044411
0003e0 c0 a8 35 bd 5c e9 df 3d cc 53 85 bd 80 b4 74 3b
       -0.044350386 0.10933182 -0.065101236 0.0037339032
0003f0 68 0f d7 3d c8 5b 39 bd a0 d4 6e bd e0 c0 92 3c
       0.105009854 -0.045253545 -0.058308244 0.017914236

arr_2 f4 [128, 64]
000000 da d9 19 3e 0c 51 a0 3e 8d a5 f8 3d 56 1a 44 bb
       0.1502451 0.31311834 0.12140951 -0.0029922924
000010 ec ab ac 3e f9 65 af 3e 3c b9 a1 3d 89 f2 a6 be
       0.33724916 0.34257486 0.07896659 -0.32606915
000020 12 06 07 be c9 a6 34 3e b4 7c b7 bd 08 f3 12 3d
       -0.1318591 0.17641748 -0.08959332 0.035876304
000030 02 f7 7c bc 09 fb 80 be 05 5d 8a 3e f3 7f b7 3e
       -0.015439751 -0.25191525 0.27024093 0.35839805
000040 d5 c7 b2 be fa 21 2f ba 31 f2 39 3e b8 9a 5b bd
       -0.34918085 -0.0006680783 0.18158795 -0.05361435
000050 9c 18 16 be c8 76 9a be 72 19 20 be ff 3b b2 be
       -0.14657825 -0.30168748 -0.15634707 -0.34811398
000060 da 83 0d 3e 64 f3 6a be 4d 53 f7 bd 29 b8 e4 bd
       0.13819829 -0.22944409 -0.12076435 -0.11167938
000070 5c c9 49 3e 2e b7 68 3e 58 97 d8 3e 56 56 81 3d
       0.19705719 0.22726128 0.42302966 0.063152954
000080 eb 46 73 3e 9a 62 22 bd 21 d0 a7 3e 7a 5e 0f 3f
       0.23757522 -0.039644815 0.32775977 0.56003535
000090 09 c3 86 3d 4b 74 69 3e d9 dc 59 3e e8 fa 2d be
       0.06580169 0.22798268 0.21275653 -0.16990244
0000a0 c8 4e 96 be 5c 2d f8 be 94 b1 73 3d a1 27 54 be
       -0.2935698 -0.48472106 0.059495524 -0.20718242
0000b0 7f 06 86 3d 84 c4 2a be 00 d3 4f 3e d0 9a b2 be
       0.06544208 -0.16676527 0.20295334 -0.34883738
0000c0 05 84 a3 3e 88 b8 65 3e 30 ab 86 be e3 62 89 be
       0.3193666 0.22433674 -0.2630248 -0.26833257
0000d0 54 57 fe bc 8e 56 cc be 72 f0 f8 3e ad 57 c3 bd
       -0.0310475 -0.39909786 0.48620945 -0.09538207
0000e0 07 a9 47 3e 9e 59 1d be 6b dd 65 3d 28 59 ca be
       0.19498073 -0.15366217 0.056119364 -0.39521146
0000f0 ed 37 15 3e 2a 8d 93 3d 3e 2c d2 3d 12 21 fb bd
       0.14572115 0.07204659 0.10262345 -0.12262167
000100 b9 d0 09 be 91 96 28 bd 58 d2 96 bc cf 58 c0 be
       -0.13458528 -0.041159216 -0.018410847 -0.37567756
000110 43 2e d0 3e af a1 86 bd 1a 57 27 3d d3 f8 eb bd
       0.40660295 -0.065738074 0.04085455 -0.11522069
000120 c6 a4 d5 3e 2e 1d 2c bd 9b 24 99 3e 43 77 a5 be
       0.41727275 -0.042020015 0.2991074 -0.32317552
000130 d2 6f a0 3d 46 d8 45 be 2d 7a 14 3f ae fd 9c 3e
       0.07833828 -0.19320783 0.57998925 0.30662292
000140 23 eb 77 bd 7c aa a8 bd 4b 15 d1 38 27 5e 7f 3e
       -0.06052698 -0.08235642 9.969863e-05 0.2493826
000150 91 b5 04 bf e0 53 bb be bf c1 b7 be 89 3b 7d bd
       -0.5183955 -0.3658743 -0.35890004 -0.061824355
000160 8c 92 9c 3e a4 d0 46 be 04 0e ef 3e 43 70 a3 3d
       0.30580556 -0.19415528 0.4669038 0.079803966
000170 88 d9 99 bd be ac 5a 3e b3 29 a3 3c d7 7d 75 bd
       -0.07512194 0.21354958 0.019917345 -0.059934463
000180 f9 ba 11 3f 5b f8 b4 3e 90 37 3e 3e 55 e6 32 be
       0.5692592 0.3534573 0.18575883 -0.17470677
000190 2a 05 37 3e 2d 83 09 3d 25 24 99 3e 54 d6 03 3e
       0.17873064 0.033572365 0.2991039 0.12874728
0001a0 c7 6a 11 3c f0 ba bf 3d ed 9a 75 bd 58 13 b4 be
       0.008875555 0.093618274 -0.059962202 -0.35171008
0001b0 e6 f4 3b 3e 0f 61 6e bd 27 90 eb bd 4a 7e d7 be
       0.1835514 -0.05819803 -0.11502104 -0.42088538
0001c0 b7 ca 82 3e 23 14 b7 be 48 d2 6a 3c 82 fb 46 bd
       0.25545284 -0.3575755 0.0143323615 -0.0485797
0001d0 c2 fc 12 3e ad 10 05 be 6d 29 62 3e 6a d3 6f 3d
       0.14354232 -0.12994643 0.22086115 0.05855123
0001e0 86 cc b3 3e f9 db f0 3e 40 61 34 be 67 13 48 be
       0.35116976 0.47042826 -0.17615223 -0.19538651
0001f0 eb 8a ab 3e 4d 5f 1b be 87 28 2e 3e 8a 1e ae bc
       0.33504423 -0.15173073 0.17007647 -0.021254797
000200 9f 70 b9 3b c5 27 e7 be 77 7e 9c 3d 3e c8 25 bc
       0.0056591774 -0.4514753 0.07641309 -0.010118542
000210 b7 4f fc 3d 5e 5f 00 3e 15 63 a6 3e 91 e1 86 bb
       0.12319892 0.1253638 0.3249747 -0.004116245
000220 82 96 a9 3b 04 46 f7 bd aa 27 0d bf 0c 02 d6 3d
       0.0051754126 -0.12073901 -0.5513865 0.10449609
000230 35 49 04 be 1d 95 46 bc 75 aa 70 3e 7d a0 9c be
       -0.12918551 -0.012120512 0.23502524 -0.30591193
000240 de 15 88 be 6d 94 d2 3d 50 45 15 3d 43 93 37 be
       -0.26579183 0.10282216 0.036443055 -0.1792727
000250 17 3a 24 bf 05 d8 eb bd 33 22 dd 3e e4 9a 11 bf
       -0.6415114 -0.11515812 0.43190154 -0.5687697
000260 23 c9 48 bd 07 17 d6 be db 43 f8 3d dd a7 d7 3d
       -0.049019944 -0.41814443 0.121223174 0.10530064
000270 fa 6f b7 3e b6 d9 21 3e 32 68 82 3b d5 f1 82 ba
       0.3582762 0.15805706 0.003979706 -0.0009990284
000280 be 5f b9 3e 92 c4 bb 3e d1 39 85 3e 0c 0e 8e be
       0.36205858 0.3667341 0.26020673 -0.27745092
000290 bb 80 07 be 01 c1 73 3d c4 80 c4 3d 66 8a 19 be
       -0.132327 0.059510235 0.095948726 -0.14994201
0002a0 83 2a b2 3d 03 26 34 be 90 51 15 bd 0a b4 e2 bd
       0.08699515 -0.17592625 -0.036454737 -0.11069496
0002b0 6c 30 b0 3d f7 e9 35 3e 7f 96 ae bc 58 d8 66 be
       0.08602986 0.17765032 -0.021311997 -0.22543466
0002c0 e6 f3 37 3d 78 f4 15 be 1c d9 9a be 93 46 63 be
       0.044910334 -0.14644039 -0.30243766 -0.2219489
0002d0 d6 a7 ad 3e 97 18 75 bd 90 e0 19 3e 6b c3 81 3e
       0.3391711 -0.059837904 0.1502707 0.25344405
0002e0 e3 6d 23 3d f6 95 e3 3d e0 68 88 3d 52 14 65 3e
       0.039899718 0.11112587 0.06660628 0.22371033
0002f0 65 f8 c5 3c 10 aa 68 3d 5d b9 12 3e f9 80 1c 3d
       0.024166295 0.05680281 0.14328523 0.038208935
000300 1a d9 15 bd a3 c5 29 bd d0 6e 55 bd 74 af 7b be
       -0.036583997 -0.041448247 -0.052107632 -0.24578649
000310 38 2b a3 3d b7 27 3a 3e d3 49 98 bd bd bf de bd
       0.07967228 0.18179213 -0.07435956 -0.10876415
000320 98 da 97 3e fb 6d 3f be 34 18 2b be 25 9f 0f 3d
       0.2965896 -0.18694298 -0.16708452 0.03506388
000330 07 a4 12 be 92 6e b7 bd 3d 76 95 3d 1d b5 1c bf
       -0.14320384 -0.089566365 0.07297943 -0.61213857
000340 5d d4 8e bc 63 1f 5d 3e 93 96 b1 3d 8d 82 82 be
       -0.017435247 0.21594004 0.08671298 -0.25490227
000350 e7 3c fd 3c 11 c7 0d bd 3a 3a 4f 3e 51 9c a6 be
       0.03091283 -0.034613673 0.20237055 -0.32541135
000360 d2 6f 36 3e cd d1 33 bc a8 26 88 bd 1c 7c ba 3e
       0.17816094 -0.010975313 -0.06647998 0.36422813
000370 a5 48 e1 bc e3 75 54 3e bc 46 dc 3d b0 72 b4 bd
       -0.02750046 0.20748095 0.10755679 -0.088109374
000380 11 39 db 3e 67 62 03 3f 38 9d 53 3e 46 e9 65 bd
       0.42816976 0.51322025 0.20665443 -0.05613067
000390 ec c4 c7 bd aa 18 cc be fa 57 81 3e f3 89 fd 3c
       -0.09754357 -0.39862567 0.25262433 0.030949568
0003a0 f0 e0 58 3c f0 75 3f 3e 93 59 da bd 5d 98 3a be
       0.013237223 0.18697333 -0.10661616 -0.18222184
0003b0 1a c9 c7 3d 58 8d 13 3e 4f 0d 98 3d 7c a2 bc bc
       0.09755154 0.14409387 0.074244134 -0.023026697
0003c0 05 d8 be 3d a4 4b c4 3d 79 ea ce be 18 c9 26 be
       0.09318546 0.0958474 -0.40413263 -0.16287649
0003d0 6a ab f6 3e b9 a9 99 bd 16 9f a2 3c e0 e3 2e 3f
       0.48177654 -0.07503075 0.019851249 0.6831646
0003e0 07 02 49 3e 98 89 38 be b4 4f 18 3e a9 6b 9b 3e
       0.1962968 -0.18021238 0.14874154 0.30355576
0003f0 fb b0 7d 3d 2c 14 75 bd 79 63 17 3e 21 a1 86 3b
       0.06193636 -0.05983369 0.1478404 0.0041085635

arr_3 f4 [5, 128]
000000 ce d0 06 bf 9c 9c 08 bf a9 a5 3b bf 59 0e 8e bf
       -0.5266236 -0.53363967 -0.7329965 -1.1098129
000010 87 76 d2 be d0 c2 43 bf e9 25 9d be 99 d9 32 bf
       -0.41106054 -0.76469135 -0.30692986 -0.6986328
000020 71 98 32 bf 70 e6 3d bf 50 79 40 bf 35 f3 16 bf
       -0.6976386 -0.74179745 -0.7518511 -0.58964854
000030 21 c7 18 bf bf cd 00 bf 43 67 3f bf ee 2e 3b bf
       -0.59678847 -0.50313944 -0.7476694 -0.73118484
000040 3c b7 0c be 7c 4c e5 be 12 3a 8d be 3e 11 e9 bc
       -0.13741773 -0.44784915 -0.27583367 -0.028450605
000050 34 22 b1 be 9e 92 02 bf e9 0f 62 bf ff 50 10 bf
       -0.34596407 -0.5100497 -0.88305527 -0.5637359
000060 23 5a 50 bf 7a 60 16 bf 43 c3 ac be 2b b7 65 bf
       -0.8138754 -0.5874096 -0.33742723 -0.8973262
000070 36 6b 45 bf 5b 98 b7 bd 5f 46 8e be 94 c0 12 bf
       -0.77116716 -0.089646064 -0.27788064 -0.573251
000080 33 c7 b0 be 52 5f a7 be 09 cf e3 be db 30 6c bf
       -0.34526977 -0.3268991 -0.44493893 -0.9226205
000090 e5 40 48 bf 52 61 f6 be 4d 37 7b bb 64 fc ef be
       -0.7822402 -0.48121125 -0.0038332522 -0.46872246
0000a0 e1 98 e1 be 51 bd 46 bf 16 c1 f2 be 16 44 29 be
       -0.4406195 -0.77632624 -0.47412938 -0.16529879
0000b0 ee 19 0d bf 02 5a b4 be 41 0c 0a be 8e 2e 9f be
       -0.5511769 -0.3522492 -0.13481237 -0.31090206
0000c0 1e 7e 11 bf 66 c0 67 3d 8f 63 2e bf bb cf 25 bf
       -0.56833065 0.05657997 -0.68120664 -0.64770097
0000d0 bc f5 35 bf a3 ed c6 be 6c a8 58 be c3 dd 15 be
       -0.71078086 -0.38853177 -0.21157998 -0.14635377
0000e0 a8 20 2d bf 47 89 67 bf 73 7a 6a be c8 20 13 bf
       -0.67627954 -0.90443844 -0.22898273 -0.57471895
0000f0 b7 51 ee be 77 bb f7 be 33 0d 9d bd 26 25 94 be
       -0.46546718 -0.48385212 -0.07668533 -0.28934592
000100 65 b1 9e be 99 95 19 bd 51 20 eb bd 86 19 f3 be
       -0.30994716 -0.037496183 -0.11480773 -0.4748041
000110 45 0c 0e bf e1 c9 f4 be 14 4c 07 bf 37 83 dd be
       -0.5548747 -0.4781027 -0.5285046 -0.4326417
000120 2c 11 26 bf fb 82 6c be 50 af d9 3c b0 6f d0 be
       -0.6486995 -0.2309684 0.026572853 -0.4071021
000130 a7 d3 12 bf 4b 31 4f bf a9 46 19 bf 0e ff 00 bf
       -0.57354206 -0.8093459 -0.59873444 -0.5038918
000140 22 39 bd be ad 70 cc be 17 15 e5 be 7e 9f 5f bf
       -0.3695765 -0.39929715 -0.44742653 -0.8735274
000150 69 2d 28 bf 32 15 2b bf fa ef 9b 3c a8 a3 1b bf
       -0.6569429 -0.66829216 0.019035328 -0.60796595
000160 ba ae a5 be d8 b0 b0 be 7e 04 60 be 2f 18 89 be
       -0.32359868 -0.3450992 -0.21876714 -0.26776263
000170 a1 8c eb be 7e ae 51 bd 3a 6e 59 bf 89 d5 cc be
       -0.4600573 -0.0511918 -0.8493382 -0.40006664
000180 0b 80 96 be 19 0c 74 be 93 02 be be 8a fb b5 be
       -0.29394564 -0.2383274 -0.3711134 -0.35543472
000190 b9 c8 de be 5b cb ca bb d7 ec 2e bf 76 62 d1 be
       -0.43512514 -0.0061887926 -0.6833014 -0.40895432
0001a0 ab 9f d8 be 87 80 7c be 94 60 58 bf 50 f2 74 be
       -0.42309317 -0.24658404 -0.84522367 -0.2392056
0001b0 49 6c 26 bf 2f 95 ca be 3d f3 82 bf 5e 38 9b bf
       -0.6500898 -0.39566943 -1.023048 -1.2126577
0001c0 80 a8 1a be 7c f0 6a be 03 4c 4f bf c5 27 41 bf
       -0.1510334 -0.229433 -0.8097536 -0.7545131
0001d0 ac 0a b7 be 15 ce d3 be eb 2b ae bd 9d 8a a1 be
       -0.3575033 -0.41368166 -0.085044704 -0.31551066
0001e0 cf c8 3a bf 9d 70 3f be 2b 1f 82 bf 70 89 23 bf
       -0.7296266 -0.18695302 -1.0165762 -0.6388159
0001f0 d5 f0 f6 bd 6d 25 3d be 9f 78 6a bd 40 6e bc be
       -0.12057654 -0.18471308 -0.05724394 -0.36802864
000200 49 68 6b bf d3 bb d1 bf 52 28 ed bf 7c cc 12 c0
       -0.91956 -1.6385444 -1.852793 -2.2937307
000210 fb 85 92 bd b0 dc 29 bf 3c 5e 4e bf a0 a0 fa bf
       -0.07154461 -0.6635237 -0.8061254 -1.9580269
000220 9a a1 33 c0 b3 5e 1b 3e e9 52 2f c0 f7 ea 1a bf
       -2.8067384 0.15172844 -2.7394354 -0.6051478
000230 91 d0 3d bf 66 d4 61 bf eb e6 db be 5e 27 cd be
       -0.7414637 -0.8821472 -0.42949614 -0.40069097
000240 f3 2c b5 bf 21 13 05 3e dc 0c dd 3d 52 df 07 c0
       -1.4154342 0.12995578 0.10793468 -2.1230054
000250 e2 fd ae be 24 c1 7d bf aa a3 e0 be c6 82 bc bf
       -0.34178072 -0.99122834 -0.43874866 -1.4727409
000260 2b 50 6c c0 e3 3b dd bf 64 31 90 bc 83 52 83 bf
       -3.692393 -1.7283901 -0.017601676 -1.0259556
000270 97 38 b6 bf a7 d2 f0 bf 99 83 e7 be de 11 f4 be
       -1.423602 -1.8814286 -0.4521759 -0.47669882
000280 74 86 b8 be 77 97 d1 bf 29 be 01 be b3 81 fd be
       -0.3604008 -1.6374348 -0.12670197 -0.49513015
000290 e0 31 ff bf 15 1f 32 bf 0c 70 90 be 0a 7a 93 bf
       -1.9937096 -0.6957868 -0.28210485 -1.1521618
0002a0 27 c6 59 bf 3c 70 98 bf a1 2f 62 bf 8b d9 7a bf
       -0.8506798 -1.1909251 -0.88353926 -0.97988194
0002b0 4e df ed be f4 7f fd bd 53 b3 86 c0 9e f8 5b bf
       -0.4645943 -0.12377921 -4.20939 -0.85926235
0002c0 21 9b 06 bf 6c 5b b3 be 9c e7 be 3d fe 1e 78 bf
       -0.5258046 -0.35030687 0.0932152 -0.9692229
0002d0 25 42 fd bf fa 51 a7 be cd 17 3e be 98 5d 61 bd
       -1.9785811 -0.3267973 -0.18563767 -0.0550209
0002e0 60 fb b5 bf 92 11 85 bf e9 a8 aa be 11 32 30 c0
       -1.4217339 -1.0395987 -0.33331993 -2.7530558
0002f0 a0 fd 08 bf b6 d7 15 c0 f9 9c 2c 3d b5 f9 46 bf
       -0.53512 -2.341291 0.04214189 -0.7772477
000300 34 c3 1f bf e3 fc 43 3c 47 88 b0 be 92 b5 8e bf
       -0.6240723 0.011962148 -0.3447897 -1.1149161
000310 c7 9a 69 bf c8 87 ea bd 6d d3 18 c0 90 60 d3 bf
       -0.91251796 -0.114516795 -2.3879044 -1.6513844
000320 49 03 89 bf f4 d0 06 bf 0f 71 ef bf 06 b8 8f be
       -1.0704128 -0.5266259 -1.8706378 -0.28070086
000330 52 8e 40 be 25 ad d1 bf c4 ff e4 be 17 c3 82 3e
       -0.18804291 -1.6380965 -0.44726384 0.25539467
000340 43 d5 ca bf 26 81 79 bf 21 5f dd be 2f 0a c1 bf
       -1.5846332 -0.9746269 -0.4323664 -1.5081233
000350 d3 39 6b c0 e2 47 72 bf b0 32 c3 be e1 79 18 c0
       -3.6754043 -0.94640934 -0.3812461 -2.382439
000360 05 99 ba be 0e 3c 80 bf b8 e1 79 bf 73 2a c0 bf
       -0.3644487 -1.0018327 -0.97610044 -1.5012954
000370 89 a3 54 bf 52 30 b3 bf 9b bf 39 c0 70 48 46 bf
       -0.83062035 -1.3999121 -2.9023197 -0.7745428
000380 37 40 b4 be 5c d2 37 bd 6c 24 4f 3e 33 06 27 bf
       -0.35205242 -0.04487835 0.20228738 -0.65243834
000390 94 70 36 be d8 25 70 be 91 90 f4 be fb 5b dd be
       -0.17816383 -0.23451936 -0.47766545 -0.43234238
0003a0 7c df 55 bf d6 cd 47 3c 88 e9 12 be d1 75 ed be
       -0.83544135 0.012195071 -0.14346898 -0.4637895
0003b0 b4 58 e4 be 64 1d 3e be c6 c2 67 3d 4c 31 05 3f
       -0.44598925 -0.18565899 0.056582235 0.52028346
0003c0 c0 4d a7 3d dd 1d 86 bf cd 43 ae bf b5 bc 47 bf
       0.081691265 -1.0477864 -1.3614441 -0.7802232
0003d0 44 e3 01 c0 53 b1 7a bf b5 52 b2 be 1d 0e 5c 38
       -2.0294962 -0.97926825 -0.34828725 5.246523e-05
0003e0 55 5b ec bf ba 6e 29 bf fb e7 36 bf 87 b3 b1 bf
       -1.8465372 -0.6618458 -0.71447724 -1.3882912
0003f0 c4 fb 57 bf 3d c0 eb bd 39 29 75 3e 5e db c8 3e
       -0.8436854 -0.11511276 0.23941506 0.39229864

arr_4 f4 [128, 1]
000000 aa e4 dc be 68 4a 2d be e7 8b 2e 3f 92 45 5d bd
       -0.43143207 -0.16922915 0.68182224 -0.054021426
000010 d6 81 25 bd 0a fe 81 3e 2d 85 c7 be 35 33 c9 bc
       -0.040407024 0.2538913 -0.38968793 -0.02456055
000020 96 99 8e bc 32 d3 c8 be 7c 2b 10 bc 94 67 b5 3e
       -0.01740722 -0.3922363 -0.00879943 0.35430586
000030 cd 9e 62 be 37 1f 99 be 8b 47 9c be ec 76 66 be
       -0.2213089 -0.29906628 -0.30523333 -0.22506303
000040 bd 25 96 be b1 44 80 bd f1 5d 48 be 91 56 ac bc
       -0.29325667 -0.06263102 -0.19567086 -0.021037372
000050 84 44 82 bc 18 3e b1 bd 84 94 10 be dc 8c 20 bd
       -0.015901811 -0.086544216 -0.14119154 -0.039196834
000060 a3 d1 ea be b9 00 10 3d c8 39 fc bd 5b 25 00 bd
       -0.45863065 0.03515694 -0.123157084 -0.031285625
000070 92 06 d6 bd 78 46 a1 be 13 54 d5 be 8c 48 2b bd
       -0.10450472 -0.31499076 -0.41665706 -0.041817233
000080 cc b9 b0 be 9f 0f a3 be 56 6b de be ef 76 cb bd
       -0.34516752 -0.31847855 -0.43441266 -0.09934794
000090 28 3f 6c be a9 95 a8 bc 94 9c e2 be 54 9a b5 bd
       -0.23070967 -0.020579176 -0.44260085 -0.088673264
0000a0 48 cb 88 3c b9 58 85 3d a1 c8 06 bf 27 83 df be
       0.016698495 0.06511063 -0.52649885 -0.4365475
0000b0 3c 17 29 bf f9 c4 f6 be 14 39 bf be bf 32 21 bd
       -0.6605108 -0.48197153 -0.37348235 -0.039355036
0000c0 c4 75 53 3e 65 94 5c be db 73 a0 bd d1 5a 7d be
       0.20650393 -0.21540983 -0.07834598 -0.24741675
0000d0 24 73 17 bd f6 e5 27 be d2 12 ad be 66 02 3e 3f
       -0.03697504 -0.16396317 -0.3380342 0.7422241
0000e0 f5 e0 f7 be cd e9 5f 3f a2 8b dd be 19 ea 1f bd
       -0.48413816 0.87466127 -0.43270594 -0.039041612
0000f0 9a dc 1a be e4 38 0b 3f c2 db 94 3f a4 95 fe bd
       -0.15123215 0.54383683 1.1629565 -0.124308854
000100 6e 17 88 be a3 03 f0 be ca ee 3c be f6 c0 df bc
       -0.26580375 -0.46877775 -0.18450466 -0.02731369
000110 6a 35 c2 be 7a 36 cb be d6 1b 3d bf fd c4 b9 be
       -0.37931377 -0.3969 -0.738706 -0.36283103
000120 2a 8c 2b bf ba 3d 07 bd 88 49 96 3d 34 64 14 bf
       -0.6701075 -0.03301785 0.07338244 -0.579654
000130 ab 55 81 be 82 4b 1e be 0e 5b 9d bc cd 3f 34 be
       -0.25260672 -0.15458491 -0.019208457 -0.17602463
000140 e6 89 c2 be 6e 52 d4 be c6 2d 48 bf a7 3d 01 bf
       -0.37995833 -0.4146914 -0.78194845 -0.504847
000150 f9 43 a5 3e 20 70 2e bd 3c 23 c6 be 9a 68 4a bd
       0.32278422 -0.0425874 -0.38698757 -0.049416162
000160 9f 93 67 bf 82 aa 1d bd 83 2e ef be a7 64 0c bf
       -0.90459627 -0.038492687 -0.46715173 -0.54841083
000170 bc 6d 5b bf bb ab ac be f5 e2 39 bf ab 14 ba bd
       -0.85714316 -0.3372477 -0.72611934 -0.09085973
000180 f5 41 6d bf dd a0 33 be 8c 4f 38 bf c7 55 00 bf
       -0.9267877 -0.17541833 -0.7199638 -0.50130886
000190 dd 9d f0 bd 1d 6c 86 3e 9a 0a 90 bd 78 11 33 be
       -0.1174886 0.2625436 -0.07033272 -0.17487133
0001a0 6a 19 f1 be a5 e9 91 3e a5 1b 91 3c 54 54 57 3e
       -0.47089702 0.2849857 0.017713377 0.21028262
0001b0 49 8e ba be b3 54 ca 3c dc 1d 15 bf ec b0 ef be
       -0.3643668 0.02469859 -0.58248687 -0.46814668
0001c0 1b 2f ca be 98 18 8b 3c 6d 5e e3 3a d2 c8 08 bf
       -0.39489064 0.0169795 0.0017346867 -0.5343143
0001d0 e1 28 ec be 1b f9 db be ba 61 0a bf c2 79 8b bc
       -0.46124938 -0.4296349 -0.5405537 -0.017025832
0001e0 af d5 3f be ea 4d fa bd 5f b0 07 be ab 6d af be
       -0.18733858 -0.12221892 -0.13250874 -0.34263358
0001f0 29 e2 12 bf 0c 70 3f be 26 d0 0c be c7 15 a1 be
       -0.57376343 -0.18695086 -0.13751277 -0.31461927

arr_5 f4 [128]
000000 ce b1 30 bf 37 1b 8d bf f1 c5 1c bf 3d 4b 30 bf
       -0.6902131 -1.102393 -0.61239535 -0.68864805
000010 2d 25 fc be 55 76 8b 3c c3 ee e3 be aa 44 67 be
       -0.49247113 0.017024199 -0.44518098 -0.22584787
000020 1d 37 e4 be 0c 12 69 bd 9a df 42 be 07 52 6b be
       -0.44573298 -0.056901976 -0.1903061 -0.2298051
000030 ab ed 6b be 7c 69 64 be 38 f0 67 be fd 20 ad 3c
       -0.23039882 -0.22305864 -0.2265023 0.021133894
000040 61 50 2a bf 7e c3 70 be 93 ed b8 bd 22 4a 2b bf
       -0.665289 -0.23512074 -0.09029689 -0.6690999
000050 26 4c dd 3e 75 41 59 bf 7a a0 0d bf a2 fd 72 bf
       0.4322216 -0.84865505 -0.5532299 -0.9491826
000060 17 3f 07 be 64 d6 c6 be 74 51 47 be c0 8c 17 bf
       -0.1320766 -0.38835442 -0.19464666 -0.5919914
000070 a2 2a 59 bf a1 f0 4c bf 48 b1 27 bf 9c b7 f1 be
       -0.8483068 -0.8005467 -0.65504885 -0.47210395
000080 06 79 39 bf fe a8 c0 be d2 7e 35 be b1 97 1d bf
       -0.7245029 -0.3762893 -0.1772416 -0.6155959
000090 15 f8 1f bf 52 a7 88 bd f5 ec 29 3e 7d d4 23 bf
       -0.6248792 -0.06672539 0.16594298 -0.63996106
0000a0 d5 0e 02 bf be e6 e9 be d1 b3 bd be 82 18 df be
       -0.5080388 -0.45683855 -0.37051252 -0.43573385
0000b0 2e 63 fc be c9 19 04 bf cd 7e 29 bf 03 36 1b bf
       -0.49294418 -0.51601845 -0.6620911 -0.6062929
0000c0 8f 1a e6 be a5 43 9d 3e f6 ea fc 3d 62 85 9c be
       -0.44942138 0.3071567 0.12349503 -0.30570513
0000d0 02 2c 7e bf d3 82 45 be 00 48 ab 3d c1 f4 42 bf
       -0.992859 -0.19288187 0.08363342 -0.76154715
0000e0 2a 64 b0 3e e5 9f 67 be b9 58 7d bd f4 5e 28 bf
       0.3445142 -0.22619589 -0.06185219 -0.65769887
0000f0 c3 41 82 3e 0c 7a b6 be c6 cf c6 be f6 ab 5a be
       0.25440797 -0.3563999 -0.38830394 -0.2135466
000100 d0 82 09 bf d1 e6 0e bf 77 c5 0f bf b0 c1 c5 be
       -0.5371523 -0.5582095 -0.5616068 -0.38624334
000110 a4 14 18 3e 30 0a b9 3c 19 52 2a bf c4 86 0e bf
       0.14851624 0.022587866 -0.6653152 -0.55674386
000120 cd c8 30 bd 48 b0 00 bf 24 6c 02 bf a1 81 31 be
       -0.04316025 -0.50268984 -0.5094626 -0.17334606
000130 1d 70 f0 be ab a6 fb be c7 d9 ff be fb 21 4e be
       -0.46960536 -0.49150595 -0.49970838 -0.2013015
000140 f0 58 d7 be 49 e6 52 3e 50 3d d3 be f7 ff 54 bf
       -0.4206004 0.2059566 -0.41257715 -0.8320307
000150 a2 39 27 bf fd b6 f3 be ea 7a 10 be 10 75 07 bf
       -0.65322316 -0.47600546 -0.14109388 -0.52913
000160 f1 f9 9b be 8d 4e 20 bf 4c 68 93 be e9 5a 9b be
       -0.30464128 -0.6261986 -0.2879051 -0.30342796
000170 49 58 86 bd 64 6c 32 bf 48 9f 02 bf 9a 8d 7a 3c
       -0.06559808 -0.6969664 -0.51024294 0.0152925495
000180 6e 45 eb be ab 3e 08 bf fe 4a f0 be 92 f2 a1 be
       -0.45951408 -0.53220624 -0.46932214 -0.3163038
000190 0e c7 01 bd 1a 91 0d be 43 1e 5b bf be 5e 64 be
       -0.031683974 -0.13824883 -0.8559305 -0.22301766
0001a0 72 5b d2 be 7b 44 31 bf 9e 0b 75 3d 9e 82 bf be
       -0.41085392 -0.6924512 0.059825532 -0.3740434
0001b0 10 58 51 be dc 08 42 be 6c 5b 4d 3e 11 d3 4d 3e
       -0.2044375 -0.18948692 0.20054406 0.20100047
0001c0 38 05 e5 bd 87 df 11 bf 62 91 9e 3e 4f 0b 3e 3e
       -0.11182636 -0.569817 0.30970293 0.18559001
0001d0 1e 8f 30 bf e3 e1 ea be 37 83 4a 3e c3 19 04 bf
       -0.6896838 -0.45875463 0.19776617 -0.5160181
0001e0 cb b9 cd be f6 5f cc be 51 64 41 bf c2 ca b0 bd
       -0.4018081 -0.39916962 -0.75543696 -0.08632423
0001f0 4b 92 ac be ef 5b 2b bf 28 45 f6 be fb 70 18 bf
       -0.33705363 -0.66937155 -0.48099637 -0.59547395

arr_6 f4 [5, 1]
000000 0f 39 4c 3f 0e a4 90 bf 48 87 b3 bd 82 86 96 be
       0.79774565 -1.1300066 -0.08766037 -0.29399496
000010 d5 30 b9 be
       -0.36170068
